…
() %&gt;% layer_dense(units = 25, activation = &quot;relu&quot;, input_shape = c(13)) %&gt;% layer_dropout(0.2) %&gt;% layer_dense(units = 25, activation = &quot;relu&quot;) %&gt;% layer_dropout(0.2) %&gt;% layer_dense(units = 25, activation = &quot;relu&quot;) %&gt;% layer_dropout(0.2) %&gt;% layer_dense(units = 1) model %&gt;% summary() ## Model: &quot;sequential_1&quot; ## ________________________________________________________________________________ ## Layer (type) Output Shape Param # ## ================================================================================ ## dense_3 (Dense) (None, 25) 350 ## dropout_2 (Dropout) (None, 25) 0 ## dense_2 (Dense) (None, 25) 650 ## dropout_1 (Dropout) (None, 25) 0 ## dense_1 (Dense) (None, 25) 650 ## dropout (Dropout) (None, 25) 0 ## dense (Dense) (None, 1) 26 ## ================================================================================ ## Total params: 1,676 ## Trainable params: 1,676 ## Non-trainable params: 0 ## ________________________________________________________________________________ model %&gt;% get_config() ## {&#39;name&#39;: &#39;sequential_1&#39;, &#39;layers&#39;: [{&#39;class_name&#39;: &#39;InputLayer&#39;, &#39;config&#39;: {&
…
tivation = &#39;relu&#39;) %&gt;% layer_max_pooling_2d(pool_size = c(2, 2)) %&gt;% layer_dropout(rate = 0.25) %&gt;% layer_flatten() %&gt;% layer_dense(units = 128, activation = &#39;relu&#39;) %&gt;% layer_dropout(rate = 0.5) %&gt;% layer_dense(units = num_classes, activation = &#39;softmax&#39;) summary of model model %&gt;% summary() ## Model: &quot;sequential_2&quot; ## ________________________________________________________________________________ ## Layer (type) Output Shape Param # ## ================================================================================ ## conv2d_1 (Conv2D) (None, 26, 26, 32) 320 ## conv2d (Conv2D) (None, 24, 24, 64) 18496 ## max_pooling2d (MaxPooling2D) (None, 12, 12, 64) 0 ## dropout_4 (Dropout) (None, 12, 12, 64) 0 ## flatten (Flatten) (None, 9216) 0 ## dense_5 (Dense) (None, 128) 1179776 ## dropout_3 (Dropout) (None, 128) 0 ## dense_4 (Dense) (None, 10) 1290 ## ================================================================================ ## Total params: 1,199,882 ## Trainable params: 1,199,882 ## Non-trainable params: 0 ## ________________________________________________________________________________ 3.3.4.1 compiling loss function is categorical crossentropy; the gradient descent will be optimized by adadelta; model %&gt;% compile( loss = loss
…
